…
3"}},"outputId":"06519c8d-9cd1-479e-af83-09f4f27a578b"},"source":["model = make_model(maxlen, vocab_size)\n","print(model.summary())"],"execution_count":14,"outputs":[{"output_type":"stream","text":["Model: \"model\"\n","_________________________________________________________________\n","Layer (type)                 Output Shape              Param #   \n","=================================================================\n","input_1 (InputLayer)         [(None, 200)]             0         \n","_________________________________________________________________\n","embedding (Embedding)        (None, 200, 32)           640000    \n","_________________________________________________________________\n","lstm (LSTM)                  (None, 200, 64)           24832     \n","_________________________________________________________________\n","lstm_1 (LSTM)                (None, 200, 64)           33024     \n","_________________________________________________________________\n","lstm_2 (LSTM)                (None, 200, 64)           33024     \n","_________________________________________________________________\n","global_average_pooling1d (Gl (None, 64)                0         \n","_________________________________________________________________\n","dropout (Dropout)            (None, 64)                0         \n","_________________________________________________________________\n","dense (Dense)                (None, 16)                1040      \n","_________________________________________________________________\n","dropout_1 (Dropout)          (None, 16)                0         \n","_________________________________________________________________\n","dense_1 (Dense)              (None, 2)                 34        \n","=================================================================\n","Total params: 731,954\n","Trainable params: 731,954\n","Non-trainable params: 0\n","_________________________________________________________________\n","None\n"],"name":"stdout"}]},{"cell_type":"code","metadata":{"colab":{"base_uri":"https://localhost:8080/"},"id":"mzZux5_lteba","executionInfo":{"status":"ok","time
…
