…
}},"outputId":"d469293a-13b2-4029-9ac4-1e758074fd23"},"source":["model = make_model(maxlen, vocab_size)\n","print(model.summary())"],"execution_count":null,"outputs":[{"output_type":"stream","text":["Model: \"model\"\n","_________________________________________________________________\n","Layer (type)                 Output Shape              Param #   \n","=================================================================\n","input_1 (InputLayer)         [(None, 200)]             0         \n","_________________________________________________________________\n","token_and_position_embedding (None, 200, 32)           646400    \n","_________________________________________________________________\n","transformer_block (Transform (None, 200, 32)           10656     \n","_________________________________________________________________\n","global_average_pooling1d (Gl (None, 32)                0         \n","_________________________________________________________________\n","dropout_2 (Dropout)          (None, 32)                0         \n","_________________________________________________________________\n","dense_2 (Dense)              (None, 20)                660       \n","_________________________________________________________________\n","dropout_3 (Dropout)          (None, 20)                0         \n","_________________________________________________________________\n","dense_3 (Dense)              (None, 2)                 42        \n","=================================================================\n","Total params: 657,758\n","Trainable params: 657,758\n","Non-trainable params: 0\n","_________________________________________________________________\n","None\n"],"name":"stdout"}]},{"cell_type":"code","metadata":{"colab":{"base_uri":"https://localhost:8080/"},"id":"mzZux5_lteba","executionInfo":{"status":"ok","time
…
