…
51232710113"}},"outputId":"02a89b4c-ded5-4750-81d4-90a023f7aad3"},"source":["model = make_model(maxlen)\n","print(model.summary())"],"execution_count":31,"outputs":[{"output_type":"stream","text":["Model: \"model_1\"\n","_________________________________________________________________\n","Layer (type)                 Output Shape              Param #   \n","=================================================================\n","input_8 (InputLayer)         [(None, 200)]             0         \n","_________________________________________________________________\n","embedding (Embedding)        (None, 200, 32)           640000    \n","_________________________________________________________________\n","lstm_10 (LSTM)               (None, 200, 64)           24832     \n","_________________________________________________________________\n","lstm_11 (LSTM)               (None, 200, 64)           33024     \n","_________________________________________________________________\n","lstm_12 (LSTM)               (None, 200, 64)           33024     \n","_________________________________________________________________\n","global_average_pooling1d_2 ( (None, 64)                0         \n","_________________________________________________________________\n","dropout_3 (Dropout)          (None, 64)                0         \n","_________________________________________________________________\n","dense_2 (Dense)              (None, 20)                1300      \n","_________________________________________________________________\n","dropout_4 (Dropout)          (None, 20)                0         \n","_________________________________________________________________\n","dense_3 (Dense)              (None, 2)                 42        \n","=================================================================\n","Total params: 732,222\n","Trainable params: 732,222\n","Non-trainable params: 0\n","_________________________________________________________________\n","None\n"],"name":"stdout"}]},{"cell_type":"code","metadata":{"colab":{"base_uri":"https://localhost:8080/"},"id":"mzZux5_lteba","executionInfo":{"status":"ok","time
…
